…
        "outputId": "e0c03e45-2764-46eb-ea1f-022e64e04bb2"
      },
      "execution_count": 13,
      "outputs": [
        {
          "output_type": "stream",
          "name": "stdout",
          "text": [
            "Model: \"model\"\n",
            "__________________________________________________________________________________________________\n",
            "Layer (type)                    Output Shape         Param #     Connected to                     \n",
            "==================================================================================================\n",
            "input_1 (InputLayer)            [(None, 128, 128, 3) 0                                            \n",
            "__________________________________________________________________________________________________\n",
            "conv2d (Conv2D)                 (None, 128, 128, 32) 896         input_1[0][0]                    \n",
            "__________________________________________________________________________________________________\n",
            "dropout (Dropout)               (None, 128, 128, 32) 0           conv2d[0][0]                     \n",
            "__________________________________________________________________________________________________\n",
            "conv2d_1 (Conv2D)               (None, 128, 128, 32) 9248        dropout[0][0]                    \n",
            "__________________________________________________________________________________________________\n",
            "max_pooling2d (MaxPooling2D)    (None, 64, 64, 32)   0           conv2d_1[0][0]                   \n",
            "__________________________________________________________________________________________________\n",
            "conv2d_2 (Conv2D)               (None, 64, 64, 32)   9248        max_pooling2d[0][0]              \n",
            "__________________________________________________________________________________________________\n",
            "dropout_1 (Dropout)             (None, 64, 64, 32)   0           conv2d_2[0][0]                   \n",
            "__________________________________________________________________________________________________\n",
            "conv2d_3 (Conv2D)               (None, 64, 64, 32)   9248        dropout_1[0][0]                  \n",
            "__________________________________________________________________________________________________\n",
            "max_pooling2d_1 (MaxPooling2D)  (None, 32, 32, 32)   0           conv2d_3[0][0]                   \n",
            "__________________________________________________________________________________________________\n",
            "conv2d_4 (Conv2D)               (None, 32, 32, 64)   18496       max_pooling2d_1[0][0]            \n",
            "__________________________________________________________________________________________________\n",
            "dropout_2 (Dropout)             (None, 32, 32, 64)   0           conv2d_4[0][0]                   \n",
            "__________________________________________________________________________________________________\n",
            "conv2d_5 (Conv2D)               (None, 32, 32, 64)   36928       dropout_2[0][0]                  \n",
            "__________________________________________________________________________________________________\n",
            "max_pooling2d_2 (MaxPooling2D)  (None, 16, 16, 64)   0           conv2d_5[0][0]                   \n",
            "__________________________________________________________________________________________________\n",
            "conv2d_6 (Conv2D)               (None, 16, 16, 64)   36928       max_pooling2d_2[0][0]            \n",
            "__________________________________________________________________________________________________\n",
            "dropout_3 (Dropout)             (None, 16, 16, 64)   0           conv2d_6[0][0]                   \n",
            "__________________________________________________________________________________________________\n",
            "conv2d_7 (Conv2D)               (None, 16, 16, 64)   36928       dropout_3[0][0]                  \n",
            "__________________________________________________________________________________________________\n",
            "conv2d_transpose (Conv2DTranspo (None, 16, 16, 64)   36928       conv2d_7[0][0]                   \n",
            "__________________________________________________________________________________________________\n",
            "dropout_4 (Dropout)             (None, 16, 16, 64)   0           conv2d_transpose[0][0]           \n",
            "__________________________________________________________________________________________________\n",
            "conv2d_transpose_1 (Conv2DTrans (None, 32, 32, 64)   36928       dropout_4[0][0]                  \n",
            "__________________________________________________________________________________________________\n",
            "concatenate (Concatenate)       (None, 32, 32, 128)  0           conv2d_transpose_1[0][0]         \n",
            "                                                                 conv2d_5[0][0]                   \n",
            "__________________________________________________________________________________________________\n",
            "conv2d_transpose_2 (Conv2DTrans (None, 32, 32, 64)   73792       concatenate[0][0]                \n",
            "__________________________________________________________________________________________________\n",
            "dropout_5 (Dropout)             (None, 32, 32, 64)   0           conv2d_transpose_2[0][0]         \n",
            "__________________________________________________________________________________________________\n",
            "conv2d_transpose_3 (Conv2DTrans (None, 64, 64, 64)   36928       dropout_5[0][0]                  \n",
            "__________________________________________________________________________________________________\n",
            "concatenate_1 (Concatenate)     (None, 64, 64, 96)   0           conv2d_transpose_3[0][0]         \n",
            "                                                                 conv2d_3[0][0]                   \n",
            "__________________________________________________________________________________________________\n",
            "conv2d_transpose_4 (Conv2DTrans (None, 64, 64, 32)   27680       concatenate_1[0][0]              \n",
            "__________________________________________________________________________________________________\n",
            "dropout_6 (Dropout)             (None, 64, 64, 32)   0           conv2d_transpose_4[0][0]         \n",
            "__________________________________________________________________________________________________\n",
            "conv2d_transpose_5 (Conv2DTrans (None, 128, 128, 32) 9248        dropout_6[0][0]                  \n",
            "__________________________________________________________________________________________________\n",
            "concatenate_2 (Concatenate)     (None, 128, 128, 64) 0           conv2d_transpose_5[0][0]         \n",
            "                                                                 conv2d_1[0][0]                   \n",
            "__________________________________________________________________________________________________\n",
            "conv2d_transpose_6 (Conv2DTrans (None, 128, 128, 32) 18464       concatenate_2[0][0]              \n",
            "__________________________________________________________________________________________________\n",
            "dropout_7 (Dropout)             (None, 128, 128, 32) 0           conv2d_transpose_6[0][0]         \n",
            "__________________________________________________________________________________________________\n",
            "conv2d_transpose_7 (Conv2DTrans (None, 128, 128, 32) 9248        dropout_7[0][0]                  \n",
            "__________________________________________________________________________________________________\n",
            "conv2d_8 (Conv2D)               (None, 128, 128, 32) 1056        conv2d_transpose_7[0][0]         \n",
            "__________________________________________________________________________________________________\n",
            "conv2d_9 (Conv2D)               (None, 128, 128, 32) 1056        conv2d_8[0][0]                   \n",
            "__________________________________________________________________________________________________\n",
            "conv2d_10 (Conv2D)              (None, 128, 128, 1)  33          conv2d_9[0][0]                   \n",
            "==================================================================================================\n",
            "Total params: 409,281\n",
            "Trainable params: 409,281\n",
            "Non-trainable params: 0\n",
            "__________________________________________________________________________________________________\n"
…
